PyTorch/mylenet.pth (torch, 249991 bytes, 10 tensors)

conv1.0.weight f4 [6, 1, 5, 5]
-0.16594121 -0.07197846 0.22755867 0.35205752 0.17341773 0.15470979 0.089346685 -0.020222541
0.36913666 0.18851626 -0.007992668 0.02290042 0.36679265 0.36633575 0.23388165 -0.18731074
-0.104553245 0.20244803 0.328173 0.10337613 0.093343005 0.05440007 -0.016210597 0.29977232
0.30389866 0.37397715 0.14324908 0.19431816 -0.09923326 -0.1557242 0.016439581 0.3684434
0.14440511 0.032134537 -0.1923051 0.330298 0.2639287 0.032128703 -0.059795104 -0.032477025
0.35486794 0.19457781 0.14342971 0.19017605 0.047118172 0.2997401 0.16107213 0.03533088
-0.035126764 -0.07714219 0.2020513 0.15673746 0.35293195 0.3033885 0.14885667 0.004798113
0.30338475 0.42470953 0.10413614 0.08593336 0.07833022 0.27535003 0.43706045 0.45448452
0.043867566 0.057410676 0.1862379 0.4597695 0.31379053 0.26572734 0.17784908 0.2577303
0.034100994 0.3285811 0.06536867 0.15852837 0.102583334 0.1282147 0.22920886 -0.068085216
-0.10040443 -0.021056956 0.01624134 0.038151186 0.08811978 -0.05913785 -0.039017122 0.14863244
0.029646078 0.1576275 0.18663146 -0.026746107 0.08591052 -0.063537695 0.11556922 -0.07001899
-0.127924 -0.05050742 0.22282197 0.020219391 0.25020167 0.29831213 0.104637705 -0.012010907
-0.17396988 0.33542058 0.21344462 0.36106396 0.02543949 0.059545968 0.21824905 0.08377448
0.3265358 -0.051261332 0.118777506 0.09059409 0.097331725 0.024283169 0.033557914 0.12135396
0.12020845 0.33437812 0.22606744 -0.11551371 -0.00465396 0.21871884 0.31662908 0.6230461
0.3296721 0.109482616 0.43040806 0.54873085 0.6935308 0.5907678 0.2933466 0.08903057
0.723245 0.7095435 0.7593527 0.48117706 0.28306925 0.35453096 0.44255498 0.5585764
0.46435773 0.19244961 0.34376657 0.3593719 0.5039189 0.15888698
00000000: 7eec 29be 7169 93bd 2405 693e e240 b43e
00000010: 6b94 313e 3e6c 1e3e 65fb b63d bea9 a5bc
00000020: 7bff bc3e 680a 413e aef3 02bc a999 bb3c
00000030: 3fcc bb3e 5c90 bb3e ac7e 6f3e 63ce 3fbe
00000040: 0320 d6bd 894e 4f3e 4b06 a83e ddb6 d33d
00000050: 9e2a bf3d 9cd2 5e3d 16cc 84bc c27b 993e
00000060: 9b98 9b3e ef79 bf3e e3af 123e 57fb 463e
00000070: cf3a cbbd 2a76 1fbe 4dac 863c 9da4 bc3e
00000080: efde 133e 819f 033d a1eb 44be d21c a93e
00000090: aa21 873e 6399 033d b6eb 74bd a106 05bd
000000a0: 40b1 b53e 683f 473e 3ddf 123e 83bd 423e
000000b0: fcfe 403d 8977 993e 18f0 243e 1db7 103d
000000c0: 15e1 0fbd b9fc 9dbd 89e6 4e3e c97f 203e
000000d0: 7fb3 b43e bd55 9b3e e26d 183e 7d39 9d3b
000000e0: 3f55 9b3e 8773 d93e 5445 d53d d4fd af3d
000000f0: 986b a03d aefa 8c3e 63c6 df3e 32b2 e83e
00000100: 7aae 333d 7527 6b3d 26b5 3e3e e866 eb3e
00000110: 27a9 a03e 6a0d 883e 121e 363e 3af5 833e
00000120: 7cad 0b3d c83b a83e 02e0 853d 4355 223e
00000130: 3617 d23d b74a 033e bab5 6a3e 4370 8bbd
00000140: d6a0 cdbd a37f acbc 8f0c 853c 6b44 1c3d
00000150: 2578 b43d 883a 72bd 6bd0 1fbd 1a33 183e
00000160: 55dc f23c 1a69 213e 511c 3f3e a71a dbbc
00000170: dbf1 af3d 0d20 82bd 8eaf ec3d 1e66 8fbd
00000180: 82fe 02be dee0 4ebd 712b 643e 23a3 a53c
00000190: 6f1a 803e 5ebc 983e 4b4c d63d 65c9 44bc
000001a0: 2925 32be 3fbc ab3e 3a91 5a3e 60dd b83e
000001b0: 7a66 d03c 79e6 733d ae7c 5f3e f491 ab3d
000001c0: b32f a73e 67f7 51bd 9f41 f33d 6589 b93d
000001d0: db55 c73d 7fed c63c 0674 093d 6d88 f83d
000001e0: d92f f63d 9c33 ab3e 397e 673e 7492 ecbd
000001f0: 3f80 98bb d5f7 5f3e 351d a23e f37f 1f3f
00000200: c8ca a83e 6c38 e03d 725e dc3e a079 0c3f
00000210: 3c8b 313f 8f3c 173f 8731 963e a955 b63d
00000220: 9626 393f a5a4 353f f064 423f d75c f63e
00000230: 74ee 903e 1585 b53e 9196 e23e ddfe 0e3f
00000240: 4cc0 ed3e 8311 453e 2c02 b03e 98ff b73e
00000250: d400 013f 45b3 223e

conv1.0.bias f4 [6]
0.096217886 0.2603648 0.0004250339 -0.1223908 0.010823917 0.002261159
00000000: e20d c53d 894e 853e 16d7 de39 07a8 fabd
00000010: cc56 313c f42f 143b

conv2.0.weight f4 [16, 6, 5, 5]
-0.07128686 0.06097663 0.03990756 0.046624336 -0.040000375 0.06185124 -0.004904051 0.012686524
-0.062635645 0.018089171 0.014235283 0.012524845 0.071777105 -0.026576139 0.05457621 -0.05085801
-0.030213622 -0.038975984 0.0041920086 -0.05674316 -0.009624472 -0.02790052 -0.008105904 0.05188722
-0.017269475 -0.060619384 -0.0014389012 -0.066506155 -0.012259357 -0.052436337 -0.022956131 -0.031127727
-0.020025019 0.04404656 -0.053803403 0.011330841 -0.029706497 0.043665662 -0.04321406 0.07634963
0.019015333 -0.03771012 -0.040552683 -0.012355509 0.0790808 0.034396533 0.053375125 0.07722246
-0.010894808 0.003180636 0.070230216 0.015654063 0.016947439 -0.03949682 0.02083443 0.06616528
-0.060263503 0.06744464 -0.012956667 0.0003277809 -0.026601296 -0.034834996 -0.04183516 0.03892356
-0.069144286 -0.0057801735 0.0045321034 0.003331264 -0.0693745 -0.057165794 0.05413076 -0.038650945
0.04838732 -0.012076727 0.023481986 -0.036921468 0.04981448 0.032263078 0.07066863 0.0064258673
0.058151048 0.05002276 0.070992135 -0.023339424 0.027204173 0.071508296 0.072911024 0.0541485
-0.016503975 -0.019500786 -0.024387632 0.03121943 0.026119549 0.06618297 -0.0248381 -0.06913404
-0.035138693 0.07508441 0.03957803 -0.01117301 -0.06864216 -0.054085083 0.07319847 -0.028784849
0.05592681 -0.003525939 0.06268838 0.0438041 -0.051477287 0.0016669239 -0.06969065 -0.04552467
-0.059872855 -0.074760295 0.033750486 0.017307635 0.034477297 -0.030757945 -0.014132149 0.07030828
0.04312521 0.07870375 -0.03725741 -0.016808081 0.031575166 -0.041411236 -0.026421454 -0.01711909
-0.0661065 0.01700347 0.078138776 0.021884827 0.0054711667 -0.013428399 -0.042716973 -0.015832376
-0.06188868 -0.010254277 0.053993177 -0.056262292 -0.029462531 -0.06433425 -0.05090419 -0.04335439
0.029694479 -0.06654347 -0.07834452 0.04191258 -0.072271496 -0.02964755 -0.06538688 0.098937
0.07833929 0.026907887 0.02679304 -0.023106227 0.08766886 0.07222815 0.07485533 0.042515058
0.050687525 -0.06526533 0.058894087 -0.05060809 -0.04625288 -0.01799983 -0.039214425 -0.07767216
-0.0057604737 -0.07935985 -0.011411165 -0.075933084 -0.07967534 -0.069893286 -0.0070403833 0.02919775
-0.06339709 -0.028579257 0.023817759 -0.04118704 0.014771961 -0.025939712 -0.0056989067 0.03255821
-0.047311954 -0.04011484 -0.07343173 0.023418482 -0.05330821 -0.01709768 -0.02074906 4.996671e-05
0.055846404 -0.011700294 0.07233336 -0.04379429 -0.03958532 0.049069908 -0.077721454 -0.024417387
-0.012931137 0.09767741 -0.029474007 0.0072867516 0.02109359 -0.020277636 -0.063866235 -0.03330803
6.6412817e-06 -0.02723871 -0.07425025 -0.025735205 0.027408618 0.040523335 0.025288995 -0.05439714
0.05548202 -0.06948279 0.046058863 -0.02651203 -0.068750516 0.04910386 0.07139563 -0.08393735
0.07016213 0.07990691 0.037739456 -0.06481823 -0.07071441 -0.060310584 -0.07565149 0.00064111856
0.04752407 -0.07281558 -0.017008487 -0.061098415 -0.07800227 0.07296131 -0.07814262 -0.0673279
-0.0023760619 0.04397889 -0.056107048 0.022052107 -0.08098977 -0.023676664 -0.058705475 0.07861252
0.035147157 0.018671608 0.04213498 0.06438524 -0.06676051 0.015440728 -0.033506475 -0.022467952
00000000: d8fe 91bd a1c2 793d 1c76 233d 29f9 3e3d
00000010: 6fd7 23bd ba57 7d3d 29b2 a0bb 23db 4f3c
00000020: 1e47 80bd be2f 943c 1b3b 693c 0235 4d3c
00000030: e0ff 923d 34b6 d9bc 4e8b 5f3d 7d50 50bd
00000040: 8f82 f7bc 48a5 1fbd 1e5d 893b 846b 68bd
00000050: f6af 1dbc a28f e4bc a0ce 04bc b287 543d
00000060: b778 8dbc 084c 78bd 8399 bcba 6134 88bd
00000070: 78db 48bc 7cc7 56bd 7f0e bcbc 93ff febc
00000080: 820b a4bc 2a6a 343d f560 5cbd fea4 393c
00000090: 0a5b f3bc c4da 323d 3a01 31bd 325d 9c3d
000000a0: 0bc6 9b3c ed75 1abd 921a 26bd c36e 4abc
000000b0: 1df5 a13d 61e3 0c3d e09f 5a3d cf26 9e3d
000000c0: 2380 32bc 3872 503b dcd4 8f3d f33c 803c
000000d0: 5bd5 8a3c 6bc7 21bd f7ac aa3c aa81 873d
000000e0: ddd6 76bd 6a20 8a3d 3348 54bc 02da ab39
000000f0: f6ea d9bc 24af 0ebd 585b 2bbd 506e 1f3d
00000100: 859b 8dbd 9c67 bdbb 0a82 943b 5651 5a3b
00000110: 3814 8ebd ae26 6abd 37b8 5d3d 7450 1ebd
00000120: c831 463d 77dd 45bc 4b5d c03c f73a 17bd
00000130: 450a 4c3d 4a26 043d b7ba 903d 1590 d23b
00000140: cb2f 6e3d aae4 4c3d 5364 913d 5232 bfbc
00000150: 49db de3c f172 923d 6052 953d d1ca 5d3d
00000160: 5833 87bc 1dc0 9fbc 92c8 c7bc e4bf ff3c
00000170: aaf8 d53c f08a 873d 4579 cbbc 2696 8dbd
00000180: 97ed 0fbd dbc5 993d 931c 223d 000f 37bc
00000190: 4394 8cbd 5288 5dbd 14e9 953d 34ce ebbc
000001a0: 8313 653d 7113 67bb c462 803d ee6b 333d
000001b0: d9d9 52bd af7c da3a f9b9 8ebd 1478 3abd
000001c0: 3d3d 75bd ed1b 99bd f33d 0a3d bec8 8d3c
000001d0: 1138 0d3d 16f8 fbbc 878a 67bc cafd 8f3d
000001e0: 0fa4 303d 6f2f a13d 3a9b 18bd 1ab1 89bc
000001f0: f654 013d d49e 29bd ce71 d8bc 553d 8cbc
00000200: d862 87bd dc4a 8b3c 3907 a03d cf47 b33c
00000210: 7947 b33b ca02 5cbc fef7 2ebd e6b2 81bc
00000220: fc7e 7dbd 8e01 28bc f327 5d3d 4a73 66bd
00000230: 685b f1bc adc1 83bd e980 50bd 5f94 31bd
00000240: d641 f33c f147 88bd 1773 a0bd 87ac 2b3d
00000250: 1403 94bd 6bdf f2bc 8ee9 85bd 7b9f ca3d
00000260: 5a70 a03d ee6d dc3c 147d db3c 4549 bdbc
00000270: bb8b b33d 5aec 933d c04d 993d 4524 2e3d
00000280: b99d 4f3d d4a9 85bd ed3a 713d 6e4a 4fbd
00000290: a973 3dbd 6174 93bc 4e9f 20bd 9512 9fbd
000002a0: 5bc2 bcbb 6b87 a2bd e5f5 3abc ce82 9bbd
000002b0: d32c a3bd 3624 8fbd 04b3 e6bb 1f30 ef3c
000002c0: 55d6 81bd 0c1f eabc 761d c33c beb3 28bd
000002d0: 1806 723c 857f d4bc e5bd babb c25b 053d
000002e0: 2eca 41bd 754f 24bd 6063 96bd 1ed8 bf3c
000002f0: b659 5abd 6f10 8cbc eff9 a9bc 5993 5138
00000300: 33bf 643d 97b2 3fbc 8323 943d a461 33bd
00000310: 3724 22bd 87fd 483d 6d2c 9fbd f906 c8bc
00000320: 1fdd 53bc 180b c83d 7973 f1bc b4c5 ee3b
00000330: 77cc ac3c 491d a6bc 4dcc 82bd 006e 08bd
00000340: 2dd8 de36 b723 dfbc 8410 98bd a3d2 d2bc
00000350: 0a88 e03c ccfb 253d de2a cf3c 89cf 5ebd
00000360: 1d41 633d fe4c 8ebd 38a8 3c3d c22f d9bc
00000370: 12cd 8cbd 2121 493d df37 923d 58e7 abbd
00000380: 2ab1 8f3d 3ca6 a33d b094 1a3d 6cbf 84bd
00000390: b7d2 90bd 3b08 77bd 2bef 9abd bd10 283a
000003a0: 99a8 423d 5620 95bd 6255 8bbc 5542 7abd
000003b0: a7bf 9fbd bd6c 953d 3d09 a0bd 36e3 89bd
000003c0: b4b7 1bbb 3523 343d 81d0 65bd 9fa6 b43c
000003d0: f7dd a5bd 90f5 c1bc 2775 70bd 9aff a03d
000003e0: 77f6 0f3d 33f5 983c bb95 2c3d 69dc 833d
000003f0: bcb9 88bd 1bfb 7c3c 163e 09bd b60e b8bc

conv2.0.bias f4 [16]
0.11858248 0.13941818 0.0995741 0.2902079 0.08464641 0.34878805 -0.03330991 0.00974471
-0.12912488 -0.19628191 -0.10718427 -0.1042535 0.28828076 -0.06731396 -0.055444364 0.02466014
00000000: 5fdb f23d a4c3 0e3e 81ed cb3d 2196 943e
00000010: 195b ad3d 5994 b23e f96f 08bd 47a8 1f3c
00000020: 5039 04be 20fe 48be 6d83 dbbd dc82 d5bd
00000030: 8999 933e e7db 89bd a119 63bd 1004 ca3c

conv3.0.weight f4 [120, 16, 5, 5]
-0.014301011 0.01961103 -0.0026124057 -0.036044277 0.029526038 0.026020616 0.043192517 -0.025606126
0.0023782998 0.0025987227 -0.045745768 0.0066235224 0.030675111 0.029140975 -0.010693537 -0.014805964
0.032505117 0.01846852 0.0015548577 -0.02711077 -0.012871324 -0.02071744 -0.012550386 0.02985983
5.1559407e-05 0.002913323 0.027463203 -0.030171202 -0.042542186 0.0032459593 0.05096489 0.0043526073
0.03953082 -0.009999067 0.038927134 0.0021808108 0.008242456 0.014240034 -0.03214367 0.04319389
0.0032045573 0.027318766 -0.007787488 -0.040162727 0.01196034 0.053511456 0.009448063 0.029551042
-0.0101153 -0.02973163 -0.033095066 0.050156765 -0.09522153 -0.028728899 0.03672392 0.04519075
-0.018538125 0.051122162 -0.056949094 0.03247146 0.05636353 -0.02842282 0.04237691 0.0057011438
0.03179897 -0.025393933 0.05072022 0.035025284 0.012539447 -0.011801721 0.096955664 -0.01160867
-0.0104948515 -0.06690545 0.091202475 -0.025172256 0.023474026 -0.0016136237 -0.043193452 -0.020662926
-0.034383144 0.00058952556 0.017787993 -0.051089913 0.010760214 0.010110711 -0.035438363 -0.0352091
0.055526387 -0.009954253 0.02516103 0.05197222 0.06002846 -0.020031866 0.025111163 0.01266171
0.012488255 -0.034457345 0.022754183 -0.033203334 -0.013987177 0.00967466 0.021118289 -0.049159985
0.0014413144 -0.009968525 0.03178421 -0.015813475 0.036754034 -0.055074967 -0.008473638 0.048806224
0.006503901 0.009719118 -0.001007895 -0.042138245 -0.024129713 0.065524176 0.0067806346 0.017277466
0.019591477 0.0066604502 0.063345864 0.050505437 0.030596709 0.0064684013 0.002547399 0.017054986
0.021144774 -0.032725032 -0.061529737 0.029757144 0.04566089 -0.022333072 0.005157655 -0.009809522
-0.004848228 -0.032378692 -0.019887492 -0.008252811 -0.03547984 0.046388265 -0.04431831 0.036168415
0.015162077 -0.0006246427 0.030352108 0.0010338557 0.022661569 0.026861524 0.056108564 -0.026487853
-0.0037808055 0.02528223 0.05502491 -0.02705252 0.0041948357 0.04020823 -0.0587369 0.089836314
0.016099982 -0.00075387507 -0.011480361 -0.022652972 -0.05141989 0.04511304 0.013568848 0.022731913
-0.030886618 -0.0478146 0.006615505 -0.0035980626 0.012952005 -0.0029297918 0.029549368 0.08474759
0.021372773 0.02008625 -0.036403332 0.10108649 -0.004987969 -0.043467876 0.0051406124 -0.02357316
0.043919355 -0.021973206 -0.08560776 -0.019966552 0.0051768166 -0.020286128 0.013339795 0.03136721
0.0134354 -0.012410844 0.028665863 0.071591295 0.023658006 0.0025977236 -0.00920541 -0.060129683
0.039395798 0.056517996 -0.04318092 -0.0068060146 0.027044326 0.02767463 -0.043541674 0.020275768
-0.035252437 -0.02427956 -0.017636277 -0.05444631 0.016556874 0.05018282 -0.021378584 -0.0077986536
0.025933238 0.007104854 0.014763762 -0.03514261 0.0006523945 -0.010893979 -0.0033765298 -0.01438828
-0.030699799 0.03590826 -0.019805381 -0.010651651 0.012402334 0.07003521 -0.05066211 -0.017848594
0.0126616815 -0.03829795 -0.019672003 -0.026665244 -0.027407365 0.03929077 0.047967248 -0.02452836
0.03532291 0.044416193 0.029235877 0.01620766 -0.04789364 0.07821428 0.023344535 -0.032117836
-0.08825889 0.023034427 0.035239194 0.0035293864 0.0463083 0.024821341 0.030787382 0.02780334
00000000: ca4e 6abc 50a7 a03c e534 2bbb 2aa3 13bd
00000010: 97e0 f13c 3029 d53c a3ea 303d f0c3 d1bc
00000020: 40dd 1b3b 554f 2a3b ea5f 3bbd 220a d93b
00000030: 5f4a fb3c 0eb9 ee3c f233 2fbc b794 72bc
00000040: 1624 053d 4b4b 973c 5ecc cb3a 6817 debc
00000050: 3fe2 52bc 9fb7 a9bc 22a0 4dbc 9a9c f43c
00000060: 7e41 5838 73ed 3e3b 83fa e03c 9929 f7bc
00000070: b740 2ebd 29ba 543b 8fc0 503d 51a0 8e3b
00000080: 12eb 213d 20d3 23bc 0f72 1f3d efeb 0e3b
00000090: 5e0b 073c 084f 693c 15a9 03bd 14ec 303d
000000a0: 8d03 523b 9bcb df3c 2f2e ffbb ac81 24bd
000000b0: 4df5 433c d42e 5b3d 0ccc 1a3c 0715 f23c
000000c0: a5ba 25bc bf8f f3bc b18e 07bd 2e71 4d3d
000000d0: 8103 c3bd de58 ebbc d26b 163d f019 393d
000000e0: 44dd 97bc 7965 513d 7443 69bd cb00 053d
000000f0: 72dd 663d f9d6 e8bc 6993 2d3d a9d0 ba3b
00000100: a33f 023d f006 d0bc 01c0 4f3d ac76 0f3d
00000110: 4172 4d3c 015c 41bc b190 c63d 4b32 3ebc
00000120: 99f2 2bbc b905 89bd 5dc8 ba3d 0c36 cebc
00000130: 9a4c c03c 3a80 d3ba 9eeb 30bd 4c45 a9bc
00000140: 57d5 0cbd 648a 1a3a 20b8 913c a843 51bd
00000150: 9c4b 303c 65a7 253c d127 11bd 6b37 10bd
00000160: a36f 633d 2a17 23bc 811e ce3c d3e0 543d
00000170: 67e0 753d de19 a4bc edb5 cd3c 1073 4f3c
00000180: 8a9b 4c3c 2523 0dbd fb66 ba3c 3800 08bd
00000190: 792a 65bc 7782 1e3c 4300 ad3c fb5b 49bd
000001a0: 7cea bc3a 0653 23bc 2930 023d 438b 81bc
000001b0: 668b 163d 4a96 61bd 04d5 0abc 09e9 473d
000001c0: ad1e d53b ef3c 1f3c 581b 84ba 2799 2cbd
000001d0: adab c5bc 8a31 863d 1630 de3b 7989 8d3c
000001e0: 4e7e a03c e83f da3b 7abb 813d cade 4e3d
000001f0: f3a5 fa3c e2f4 d33b 43f2 263b e6b6 8b3c
00000200: ce37 ad3c af0a 06bd 9b06 7cbd 41c5 f33c
00000210: ea06 3b3d d9f3 b6bc 8c01 a93b 1eb8 20bc
00000220: e2dd 9ebb 859f 04bd 18eb a2bc cc36 07bc
00000230: 4f53 11bd 9f01 3e3d 1e87 35bd 5525 143d
00000240: 5c6a 783c 10bf 23ba fca4 f83c 7182 873a
00000250: c1a4 b93c b30c dc3c 18d2 653d 0efd d8bc
00000260: 64c7 77bb ae1c cf3c cd61 613d 3f9d ddbc
00000270: d574 893b 63b1 243d 1b96 70bd 1afc b73d
00000280: 1ce4 833c b39f 45ba 2018 3cbc ba92 b9bc
00000290: aa9d 52bd 73c8 383d e04f 5e3c 4738 ba3c
000002a0: ef05 fdbc 3ed9 43bd e1c6 d83b 79cd 6bbb
000002b0: a534 543c c001 40bb 8411 f23c 2590 ad3d
000002c0: f415 af3c eb8b a43c a91b 15bd 6f06 cf3d
000002d0: 1e72 a3bb 5f0b 32bd 9572 a83b 801c c1bc
000002e0: c8e4 333d 2701 b4bc 1f53 afbd e590 a3bc
000002f0: 49a2 a93b 182f a6bc 288f 5a3c e77a 003d
00000300: 2720 5c3c da56 4bbc acd4 ea3c 759e 923d
00000310: 6fce c13c 923e 2a3b 4ad2 16bc 8b4a 76bd
00000320: 7d5d 213d 6a7f 673d 7ade 30bd fd04 dfbb
00000330: 108c dd3c e8b5 e23c c158 32bd 5e19 a63c
00000340: dc64 10bd eee5 c6bc f479 90bc 1803 5fbd
00000350: 48a2 873c 808c 4d3d 2422 afbc d98b ffbb
00000360: f171 d43c d6cf e83b b5e3 713c b3f1 0fbd
00000370: 7405 2b3a a97c 32bc c548 5dbb d2bc 6bbc
00000380: 257e fbbc 8a14 133d e53e a2bc 4384 2ebc
00000390: 2933 4b3c 9f6e 8f3d 1383 4fbd 3737 92bc
000003a0: f172 4f3c 50de 1cbd 2e27 a1bc 1271 dabc
000003b0: 6985 e0bc 5cef 203d 4e79 443d b3ef c8bc
000003c0: c1ae 103d c1ed 353d 1480 ef3c edc5 843c
000003d0: 1f2c 44bd cf2e a03d 0a3d bf3c fe8d 03bd
000003e0: 14c1 b4bd b2b2 bc3c f956 103d 474d 673b
000003f0: c6ad 3d3d 2056 cb3c d235 fc3c d5c3 e33c

conv3.0.bias f4 [120]
-0.030169496 0.063681796 -0.054172263 0.12335437 0.07445462 0.08436848 0.036684252 0.0330933
0.051227555 0.022952368 0.04965671 0.026869139 -0.028482549 0.00060630694 0.04469622 0.023070892
0.011642436 0.1074068 0.04564066 -0.04683226 -0.051627982 0.037656683 0.0658794 0.039551303
-0.036466938 0.034946404 -0.030087022 0.016800394 -0.08473534 0.0057959645 0.03247425 0.01986748
-0.011990343 0.018692138 -0.022457993 0.09384566 0.010228436 0.03659481 0.055249628 0.006641608
0.07705485 -0.005046331 0.012194734 0.060231227 -0.035933666 0.030244181 0.0027817255 -0.03446612
0.013638095 0.0038459064 -0.011960282 -0.044462137 -0.026107678 0.016570993 0.041727968 0.071957976
0.003994354 -0.036398523 -0.017681729 0.00937081 -0.0072404062 -0.018569393 0.11627564 0.024566652
0.046050757 0.06976107 0.020719593 0.008666709 -0.07669798 0.044650346 -0.07208797 -0.03682049
-0.10264201 -0.006384109 0.022027103 -0.03647483 0.061166134 -0.06425751 -0.04703537 0.02390408
0.13201804 0.052640073 0.054877114 0.0039919782 0.11852466 0.019374302 0.0980626 -0.0343548
-0.04062367 0.03394223 0.035441387 -0.07749986 -0.00092380727 0.07788963 0.007468089 -0.031117355
0.03655536 -0.030554326 0.07050847 0.17838192 -0.009633075 0.037575617 -0.08143145 -0.05736269
0.09981122 -0.04401519 0.07273438 0.047067218 0.1271765 0.023488823 -0.038088348 -0.00027022848
0.012809626 0.040133335 0.09024597 0.035035044 -0.00096691505 0.029063534 -0.078648165 -0.07750762
00000000: 0526 f7bc 9a6b 823d bce3 5dbd 37a1 fc3d
00000010: aa7b 983d 62c9 ac3d 3a42 163d d78c 073d
00000020: fcd3 513d 9b06 bc3c d664 4b3d ab1c dc3c
00000030: 3c54 e9bc 92f0 1e3a 6213 373d 2bff bc3c
00000040: eabf 3e3c 19f8 db3d b3f1 3a3d 2fd3 3fbd
00000050: dd77 53bd e53d 1a3d c7eb 863d 8c00 223d
00000060: 5b5e 15bd f623 0f3d 0f79 f6bc fba0 893c
00000070: b989 adbd 13ec bd3b b803 053d 20c1 a23c
00000080: 2573 44bc 4120 993c d3f9 b7bc 2732 c03d
00000090: 2c95 273c 71e4 153d 6f4d 623d d9a1 d93b
000000a0: efce 9d3d b15b a5bb 6ccc 473c 05b5 763d
000000b0: 2e2f 13bd a5c2 f73c 9c4d 363b 592c 0dbd
000000c0: 5172 5f3c 9a0b 7c3b 0ff5 43bc ee1d 36bd
000000d0: c5df d5bc e4bf 873c f2ea 2a3d b45e 933d
000000e0: 12e3 823b 9e16 15bd 46d9 90bc 0788 193c
000000f0: ee40 edbb d71e 98bc ec21 ee3d 0140 c93c
00000100: b89f 3c3d e4de 8e3d 23bc a93c d0fe 0d3c
00000110: d513 9dbd 48e3 363d dca2 93bd 15d1 16bd
00000120: f935 d2bd ca31 d1bb 2f72 b43c a266 15bd
00000130: 5789 7a3d 7199 83bd 29a8 40bd 7dd2 c33c
00000140: bd2f 073e 1e9d 573d d3c6 603d 24cf 823b
00000150: 0fbd f23d dbb6 9e3c 0bd5 c83d 9eb7 0cbd
00000160: 0165 26bd 0207 0b3d fd2a 113d 3fb8 9ebd
00000170: a82b 72ba 9984 9f3d dfb6 f43b d3e9 febc
00000180: 13bb 153d 114d fabc bf66 903d c0a9 363e
00000190: 0cd4 1dbc e4e8 193d 88c5 a6bd 24f5 6abd
000001a0: d369 cc3d 4649 34bd c3f5 943d 8ec9 403d
000001b0: 8e3a 023e a26b c03c 8702 1cbd 74ad 8db9
000001c0: 77df 513c da62 243d e1d2 b83d e880 0f3d
000001d0: 9278 7dba a616 ee3c 4a12 a1bd 51bc 9ebd

fc2.0.weight f4 [84, 120]
-0.077446476 0.065096766 0.04139955 -0.0034989647 0.030836228 0.021613954 -0.092920735 0.016987402
-0.081970476 0.00039042634 -0.013227986 -0.049809825 0.010267769 -0.037863743 -0.04191165 -0.013891236
0.02043126 -0.032328714 -0.008839003 0.017919747 -0.018919794 0.005666919 0.04433073 -0.015156133
0.072773226 -0.060828432 -0.031470086 0.10011848 0.043130953 -0.022624575 0.076287426 0.09333565
0.049906477 0.022761742 0.100307845 -0.12317175 0.0905374 -0.053065863 -0.01626783 -0.081747785
-0.028431948 0.07023259 0.105230354 0.035709996 -0.035599563 0.04630375 0.023315938 0.04076622
-0.066080175 -0.051727813 0.036629025 0.038277775 0.010924471 -0.01848241 -0.08395163 0.13257557
0.01893205 0.08910566 -0.072083585 -0.067806795 0.056654535 -0.0025808264 0.07803635 0.067257166
-0.007102876 -0.108683094 0.014279923 0.042454615 0.019358013 0.03852 0.10825502 0.066488266
-0.00080195046 0.0356095 -0.009422491 -0.052085645 0.057212353 0.09917354 -0.03944308 -0.06868291
-0.036883004 0.091453366 -0.10224225 0.039702285 0.07680584 -0.09766948 1.3043089e-05 5.675877e-05
-0.069962315 0.076172024 0.07275719 0.07085324 0.036369115 0.05350949 0.06645708 -0.023440998
-0.05746756 -0.068853594 -0.015873842 -0.05277247 0.016006527 0.05187419 -0.013978935 0.023044636
0.08680713 0.002901093 0.0056579225 0.015960637 -0.04341812 0.021100527 -0.12226235 0.0131121045
0.0078189615 0.0067144204 -0.025313977 -0.0047753253 -0.022125492 -0.030673293 -0.011509749 -0.032580104
0.036797035 -0.033516273 -0.028033672 0.044775493 0.019505782 -0.006633071 0.018156502 -0.05446293
0.038999114 -0.06933971 0.0065224376 0.049119323 0.09072008 0.05584251 0.01701013 -0.0018357453
-0.055895768 -0.058043357 0.056285914 0.065882295 0.10199005 0.08629642 0.013274116 0.024661833
-0.003988816 -0.057440322 -0.05304937 -0.050765913 -0.035076387 0.04031306 -0.020017298 0.04170827
-0.082499065 -0.020999659 0.055286516 -0.10675962 -0.08326353 0.085613936 -0.08171464 -0.01814401
-0.067005634 -0.040743235 -0.044708766 -0.07585819 -0.016208153 -0.058911465 0.0397196 0.0916432
0.0024938213 0.055483066 -0.044239666 0.08961326 -0.011011966 0.020422088 -0.015854416 0.049261395
0.021990756 0.06407196 -0.030730365 0.012744379 0.034765236 -0.016640222 0.10354391 -0.008838914
-0.042701457 0.032356143 -0.0070962408 0.0865425 -0.07552988 0.076096155 -0.09325888 0.04882744
0.095065445 0.08121817 -0.022968328 0.062770404 -0.0560467 -0.011570652 0.041563533 0.062328976
-0.020433776 0.04754071 0.11717634 -0.018393626 0.07851781 -0.04788816 -0.0934676 -0.06303081
-0.049428456 0.022209208 -0.07457959 -0.01702728 0.03311093 -0.0053371093 0.08189146 -0.07021571
0.038243044 0.07135712 -0.0023798542 0.077227175 -0.09739344 -0.050022393 0.06680673 -0.015801135
0.056496438 0.035624534 0.07283126 0.06635719 -0.03563773 0.04700929 -2.6085017e-05 0.055417363
0.043047413 0.052400343 -0.056483615 0.108936556 -0.070295446 -0.08624744 0.0418688 -0.015458498
-0.052659526 0.018928237 0.025562545 -0.011587796 0.08791115 0.054511383 -0.007484364 0.049351126
0.06299338 0.0006402613 0.049628045 0.07707816 -0.052104615 -0.014337432 -0.068804115 -0.077414915
00000000: 429c 9ebd 7451 853d 9392 293d e34e 65bb
00000010: 429c fc3c bf0f b13c 3a4d bebd 2a29 8b3c
00000020: 23e0 a7bd 23b2 cc39 32ba 58bc 6305 4cbd
00000030: 253a 283c 0317 1bbd 8dab 2bbd 1198 63bc
00000040: 755f a73c 1d6b 04bd 77d1 10bc 6fcc 923c
00000050: affd 9abc 90b1 b93b 2494 353d 6e51 78bc
00000060: 210a 953d 3c27 79bd c7e6 00bd eb0a cd3d
00000070: 15aa 303d 2c57 b9bc 953c 9c3d c326 bf3d
00000080: bc6a 4c3d d576 ba3c 336e cd3d 7841 fcbd
00000090: ac6b b93d 975b 59bd 1d44 85bc 626b a7bd
000000a0: 1eea e8bc 1bd6 8f3d 0383 d73d a544 123d
000000b0: d9d0 11bd 00a9 3d3d 1101 bf3c 7bfa 263d
000000c0: 0b55 87bd 8be0 53bd 5108 163d 28c9 1c3d
000000d0: 8dfc 323c 6c68 97bc d5ee abbd e4c1 073e
000000e0: 6317 9b3c 077d b63d 8fa0 93bd 4ade 8abd
000000f0: 960e 683d 1523 29bb 86d1 9f3d 20be 893d
00000100: 3ebf e8bb 3e95 debd 57f6 693c e4e4 2d3d
00000110: b294 9e3c 26c7 1d3d cfb4 dd3d 002b 883d
00000120: fc39 52ba 44db 113d cb60 1abc c257 55bd
00000130: 8057 6a3d 7f1b cb3d 118f 21bd a0a9 8cbd
00000140: a212 17bd e74b bb3d 6364 d1bd dd9e 223d
00000150: 614c 9d3d f006 c8bd a4d3 5a37 4410 6e38
00000160: 6748 8fbd 1400 9c3d b901 953d 811b 913d
00000170: c8f7 143d c42c 5b3d a61a 883d 5607 c0bc
00000180: 1b63 6bbd 1d03 8dbd dc09 82bc f227 58bd
00000190: 1f20 833c 087a 543d e707 65bc 1bc8 bc3c
000001a0: f0c7 b13d 4420 3e3b 1866 b93b e2bf 823c
000001b0: 33d7 31bd 03db ac3c af64 fabd 27d4 563c
000001c0: 1a1b 003c a404 dc3b 425f cfbc 557a 9cbb
000001d0: 8540 b5bc 8f46 fbbc 6393 3cbc b772 05bd
000001e0: 7db8 163d 5c48 09bd dfa6 e5bc 8266 373d
000001f0: 97ca 9f3c 3c5a d9bb f2bc 943c 8514 5fbd
00000200: 89bd 1f3d fa01 8ebd 2cba d53b 5831 493d
00000210: 73cb b93d 1ebb 643d d458 8b3c 649d f0ba
00000220: f6f2 64bd dfbe 6dbd 0f8c 663d 4ced 863d
00000230: 29e0 d03d 2dbc b03d ae7b 593c 9d07 ca3c
00000240: 9db4 82bb 8b46 6bbd 4c4a 59bd ebef 4fbd
00000250: 42ac 0fbd 4f1f 253d 51fb a3bc 4ad6 2a3d
00000260: 45f5 a8bd 7a07 acbc 1d74 623d caa4 dabd
00000270: 1286 aabd 5c56 af3d 015a a7bd bfa2 94bc
00000280: 403a 89bd 61e2 26bd 8a20 37bd 8a5b 9bbd
00000290: f6c6 84bc 264d 71bd 05b1 223d 6eaf bb3d
000002a0: 616f 233b 3642 633d a734 35bd 2887 b73d
000002b0: 886b 34bc 394c a73c 1fe1 81bc 51c6 493d
000002c0: f525 b43c 2938 833d 3fbe fbbc cdcd 503c
000002d0: fe65 0e3d 1351 88bc d40e d43d 18d1 10bc
000002e0: b9e7 2ebd e087 043d 9587 e8bb 323d b13d
000002f0: 69af 9abd 4dd8 9b3d 83fe bebd 48ff 473d
00000300: acb1 c23d b655 a63d 1328 bcbc c58d 803d
00000310: 3991 65bd d592 3dbc 863e 2a3d ab4c 7f3d
00000320: bc64 a7bc 0cba 423d 26fa ef3d 3bae 96bc
00000330: f2cd a03d 6026 44bd f16b bfbd 4c16 81bd
00000340: 7e75 4abd 16f0 b53c 2fbd 98bd cb7c 8bbc
00000350: 549f 073d ebe2 aebb b6b6 a73d 41cd 8fbd
00000360: bda4 1c3d af23 923d 54f7 1bbb 4829 9e3d
00000370: 3676 c7bd 48e4 4cbd f8d1 883d 6271 81bc
00000380: cf68 673d 08eb 113d 8e28 953d 47e6 873d
00000390: def8 11bd d08c 403d 26d1 dab7 51fd 623d
000003a0: 7c52 303d bea1 563d 5d5b 67bd 211a df3d
000003b0: 0ff7 8fbd 7fa2 b0bd 9e7e 2b3d a445 7dbc
000003c0: 84b1 57bd 640f 9b3c 8b68 d13c bdda 3dbc
000003d0: c30a b43d 5447 5f3d 653f f5bb 6824 4a3d
000003e0: ac02 813d 35d7 273a c746 4b3d 28db 9d3d
000003f0: a66b 55bd 8ce7 6abc 2ce9 8cbd b68b 9ebd

fc2.0.bias f4 [84]
-0.06828921 -0.01353967 -0.021298138 0.24145554 0.015517178 0.093031816 -0.025415622 -0.04621969
-0.022247497 -0.004339014 -0.029279536 -0.012594772 0.1858371 -0.028219545 0.11514804 -0.01847916
-0.0036086757 -0.07362438 0.1329411 -0.035175182 0.03696528 -0.0045219194 0.23552407 -0.0938165
-0.059060875 0.10753773 0.19001622 0.13961981 0.095915206 0.009925853 -0.015674135 0.088396676
-0.071312696 -0.06478507 -0.037501507 -0.098122194 0.04127959 0.052639283 -0.03489798 0.11459413
-0.058913086 -0.046057254 0.03653133 -0.0846011 -0.024017503 0.2373361 0.018752115 -0.009744052
0.119821966 0.14115481 0.109018475 0.0029062966 0.029017556 0.06113776 0.0343965 0.006853474
-0.058678597 -0.07113206 0.14348434 0.009260495 -0.111165024 -0.03732483 -0.022392128 -0.046157796
0.09451537 0.07421293 0.052501537 0.10307661 -0.18286876 0.07410138 0.09220187 0.024625305
0.15454465 0.05408816 -0.0685278 0.052249417 0.046168245 -0.022285469 -0.038643666 -0.07196853
0.012835958 0.24094309 0.0752236 -0.08362416
00000000: 37db 8bbd 7ed5 5dbc 6f79 aebc 1f40 773e
00000010: c33b 7e3c 7787 be3d 6c34 d0bc dc50 3dbd
00000020: 6240 b6bc 4a2e 8ebb a3db efbc 4d5a 4ebc
00000030: 154c 3e3e ad2c e7bc bcd2 eb3d 9b61 97bc
00000040: 887f 6cbb 61c8 96bd b621 083e da13 10bd
00000050: e868 173d 9c2c 94bb 392d 713e dd22 c0bd
00000060: d1e9 71bd be3c dc3d 9d93 423e 7ff8 0e3e
00000070: 316f c43d 0ca0 223c 0b67 80bc 5109 b53d
00000080: 640c 92bd 09ae 84bd 2e9b 19bd 4af4 c8bd
00000090: ca14 293d 4a9c 573d 2ff1 0ebd 54b0 ea3d
000000a0: d94e 71bd 88a6 3cbd e0a1 153d 5743 adbd
000000b0: 5bc0 c4bc 3c08 733e 099e 993c 84a5 1fbc
000000c0: 3865 f53d e38a 103e 1445 df3d 9177 3e3b
000000d0: 3ab6 ed3c 966b 7a3d 58e3 0c3d 1b93 e03b
000000e0: f858 70bd afad 91bd 8fed 123e 55b9 173c
000000f0: 7daa e3bd ece1 18bd b26f b7bc f50f 3dbd
00000100: 4691 c13d f3fc 973d da0b 573d d419 d33d
00000110: f341 3bbe 77c2 973d 56d4 bc3d 02bb c93c
00000120: f440 1e3e 8c8b 5d3d 4e58 8cbd 7c03 563d
00000130: ea1a 3d3d 0490 b6bc d248 1ebd 3d64 93bd
00000140: e94d 523c c9b9 763e d50e 9a3d 2543 abbd

fc3.weight f4 [10, 84]
-0.06936147 0.03963069 0.056917943 -0.049269304 0.040716454 -0.12102647 -0.021964412 0.056892477
0.11066741 -0.11441606 0.014878934 -0.119852975 0.1474992 -0.1812829 0.052105278 -0.07700096
-0.075150415 -0.013412192 -0.02132099 -0.1776205 0.16163154 0.05745965 0.046105683 0.13383394
0.11063449 -0.15863082 0.11524928 -0.05027878 -0.15625778 0.102233425 -0.11036131 -0.1549175
-0.02881869 -0.0033078906 -0.04430329 0.04757658 -0.11555639 0.06677533 -0.042332415 0.4189027
-0.08210052 0.25122654 -0.0036375285 0.04662743 -0.26404896 0.096810915 -0.10966431 -0.025215006
0.18532728 0.32813576 -0.11173115 0.03035508 -0.23153196 0.31801453 -0.05536386 0.115875855
-0.08330638 -0.057886768 0.100975595 0.10868917 0.116812 0.14748602 0.064357355 -0.114475094
-0.12988015 0.05349256 -0.20155935 0.04274036 -0.0025752038 -0.104677595 -0.24834438 -0.13395822
-0.105875984 -0.017606594 0.11676043 0.098833725 -0.09002336 -0.1888177 0.017264167 -0.005735223
0.04035277 0.015342603 -0.0021512397 0.09166353 0.00044529236 0.05810088 0.1850728 -0.2320116
-0.16716394 -0.05054847 -0.267014 -0.09781063 -0.037443187 -0.2079026 -0.0004925303 -0.10876062
-0.26179883 0.072149426 0.095738165 -0.0051440434 -0.07982759 0.033708353 0.14633204 -0.1803241
-0.056359958 0.10258392 -0.027821057 -0.13097249 0.097589985 0.13443947 -0.048839983 -0.12235929
0.18926817 -0.06792976 0.010951914 -0.11319564 0.3005816 0.030866455 0.18225574 0.07719007
0.12202712 0.015523389 -0.339579 -0.0053149485 -0.043205652 0.12146783 0.024702456 0.012640153
0.13989095 -0.20603424 -0.08298979 -0.022381783 0.25493684 0.0022297876 0.029343357 0.11339528
-0.2250309 -0.15814279 -0.08780168 -0.011937055 -0.06500498 0.009440687 0.091097236 0.18961427
0.10118265 0.12970014 -0.03729588 -0.045892484 0.0049331384 -0.1636713 0.06586371 0.21233214
-0.085089944 0.10675318 0.30042788 0.5843351 0.2206999 -0.099014655 0.07180767 -0.025691219
0.18595602 -0.061724443 -0.025411196 -0.04123849 -0.3489026 -0.27075693 0.18846764 -0.09579383
0.04987593 0.052441496 0.1272826 0.20648742 -0.24999484 -0.032984756 0.24605176 -0.093099535
-0.07393863 0.070655674 -0.079704106 -0.059715677 -0.14044961 0.16684285 0.15148477 -0.23744345
-0.016237093 0.014969943 0.02545364 0.04686681 -0.04551268 -0.0198122 0.20203461 0.04645932
-0.017579809 -0.09142725 0.23513779 -0.09841519 0.038286127 -0.017596195 0.09017868 -0.19361547
-0.086494476 0.077892676 0.1736672 0.09477141 -0.0012222251 -0.08726861 -0.13217834 -0.2842603
0.014366144 0.12227424 0.28126496 0.074541084 -0.08974336 0.07686652 0.078107 -0.022901973
0.10335924 -0.269047 -0.054664087 -0.23240803 0.053209454 0.35384887 -0.01833663 -0.030815255
0.105714396 -0.10939022 -0.025407963 0.12054503 0.021109536 -0.2915202 -0.031929955 -0.08098105
0.03082697 0.058884256 0.11146114 -0.051303327 -0.16344053 -0.026860999 -0.083361834 0.051228393
-0.2244927 0.08877364 0.0037756374 0.23077156 0.04100039 -0.093966104 -0.013977364 0.000277244
0.15687722 -0.010211285 -0.26416045 -0.0740806 0.039565865 -0.11212492 -0.2491794 -0.07717289
00000000: 630d 8ebd ca53 223d ca22 693d 9cce 49bd
00000010: 4cc6 263d badc f7bd b6ee b3bc 1608 693d
00000020: 98a5 e23d f852 eabd c6c6 733c 7a75 f5bd
00000030: 080a 173e 39a2 39be 586c 553d aeb2 9dbd
00000040: 76e8 99bd d0be 5bbc 5ba9 aebc 26e2 35be
00000050: bd82 253e cf5a 6b3d 50d9 3c3d c40b 093e
00000060: 5694 e23d 1e70 22be d107 ec3d 1ff1 4dbd
00000070: 0a02 20be c25f d13d 1c05 e2bd b1a2 1ebe
00000080: 2c15 ecbc 32c9 58bb 5e77 35bd a9df 423d
00000090: d4a8 ecbd 81c1 883d c164 2dbd 6a7a d63e
000000a0: 5124 a8bd c4a0 803e 9a63 6ebb 67fc 3e3d
000000b0: 6d31 87be cd44 c63d af97 e0bd b38f cebc
000000c0: 6fc6 3d3e 6901 a83e 4dd3 e4bd 37ab f83c
000000d0: b716 6dbe cdd2 a23e 37c5 62bd 5250 ed3d
000000e0: 899c aabd ad1a 6dbd 4bcc ce3d 6d98 de3d
000000f0: 213b ef3d 9306 173e cacd 833d eb71 eabd
00000100: 4dff 04be 041b 5b3d 9365 4ebe 8410 2f3d
00000110: c0c4 28bb 3561 d6bd fd4d 7ebe 582c 09be
00000120: 82d5 d8bd b43b 90bc 1820 ef3d 5669 ca3d
00000130: 2b5e b8bd 6d59 41be 956d 8d3c 8aee bbbb
00000140: f248 253d 8b5f 7b3c d0fb 0cbb 17ba bb3d
00000150: 2176 e939 30fb 6d3d b983 3d3e 7394 6dbe
00000160: 062d 2bbe ea0b 4fbd 0fb6 88be f150 c8bd
00000170: 075e 19bd 6be4 54be 261d 01ba e3bd debd
00000180: 7f0a 86be 14c3 933d 5f12 c43d 5d8f a8bb
00000190: a67c a3bd c511 0a3d 11d8 153e e2a6 38be
000001a0: b3d9 66bd 8517 d23d fce8 e3bc a71d 06be
000001b0: 42dd c73d 80aa 093e 6f0c 48bd 8297 fabd
000001c0: 84cf 413e c21e 8bbd a86f 333c 1ed3 e7bd
000001d0: d5e5 993e a6db fc3c 40a1 3a3e d415 9e3d
000001e0: 5be9 f93d d055 7e3c 4cdd adbe 0529 aebb
000001f0: 69f8 30bd 20c4 f83d ce5c ca3c a518 4f3c
00000200: 933f 0f3e a4fa 52be 8df6 a9bd 005a b7bc
00000210: 1587 823e a121 123b 7b61 f03c c93b e83d
00000220: 806e 66be 2ff0 21be 5ed1 b3bd a393 43bc
00000230: 5521 85bd 1cad 1a3c 3091 ba3d 3e2a 423e
00000240: d938 cf3d 1dd0 043e 91c3 18bd c2f9 3bbd
00000250: 2aa6 a13b 7399 27be 8ee3 863d 996d 593e
00000260: a343 aebd 69a1 da3d afd1 993e fc96 153f
00000270: 28ff 613e 32c8 cabd e60f 933d 6476 d2bc
00000280: 416b 3e3e c5d2 7cbd 242b d0bc b1e9 28bd
00000290: 5da3 b2be a7a0 8abe a9fd 403e 8e2f c4bd
000002a0: b44a 4c3d e5cc 563d 5f56 023e 7071 533e
000002b0: a6fe 7fbe 061b 07bd fef4 7b3e f8aa bebd
000002c0: 236d 97bd ecb3 903d e83b a3bd 6d98 74bd
000002d0: 06d2 0fbe dad8 2a3e d31e 1b3e 6024 73be
000002e0: a703 85bc 7e44 753c 2784 d03c 6af7 3f3d
000002f0: 816b 3abd 324d a2bc 29e2 4e3e 214c 3e3d
00000300: 8803 90bc 363e bbbd f6c7 703e e78d c9bd
00000310: ead1 1c3d e525 90bc 9aaf b83d 2243 46be
00000320: 0424 b1bd 3286 9f3d d1d5 313e 8317 c23d
00000330: 1233 a0ba e3b9 b2bd c259 07be 918a 91be
00000340: fa5f 6b3c eb6a fa3d f601 903e ffa8 983d
00000350: 5ecb b7bd 326c 9d3d 90f6 9f3d eb9c bbbc
00000360: 02ae d33d 87c0 89be 73e7 5fbd 5ffc 6dbe
00000370: 28f2 593d ae2b b53e b336 96bc 4670 fcbc
00000380: ca80 d83d fb07 e0bd 5c24 d0bc 50e0 f63d
00000390: e8ed ac3c 2342 95be fcc8 02bd 65d9 a5bd
000003a0: d788 fc3c 9e30 713d bd45 e43d 7023 52bd
000003b0: f45c 27be 990b dcbc 9cb9 aabd ddd4 513d
000003c0: 6ae1 65be f4ce b53d af70 773b 614f 6c3e
000003d0: 06f0 273d 4d71 c0bd 5001 65bc 0f5b 9139
000003e0: 6ca4 203e 3c4d 27bc 0a40 87be 92b7 97bd
000003f0: d10f 223d c0a1 e5bd e228 7fbe d20c 9ebd

fc3.bias f4 [10]
0.038665883 -0.067900896 0.17569874 0.08314059 -0.59354866 0.6148457 0.3395628 0.070876986
-0.18160747 -0.39763626
00000000: 1e60 1e3d a00f 8bbd 5fea 333e 9d45 aa3d
00000010: cef2 17bf 8766 1d3f 2ddb ad3e f427 913d
00000020: 4ff7 39be fb96 cbbe
